…
wandb: Run data is saved locally in /home/jose/simg_ir/wandb/run-20250227_183530-41tuilfr
wandb: Run `wandb offline` to turn off syncing.
wandb: Syncing run lucky-sweep-1
wandb: ⭐️ View project at https://wandb.ai/gomes-group/simg-ir
wandb: 🧹 View sweep at https://wandb.ai/gomes-group/simg-ir/sweeps/dq44t1oc
wandb: 🚀 View run at https://wandb.ai/gomes-group/simg-ir/runs/41tuilfr
INFO:root:WandB initialized
PID:  2452989
Create sweep with ID: dq44t1oc
Sweep URL: https://wandb.ai/gomes-group/simg-ir/sweeps/dq44t1oc
Model is on device: cuda:0
GNN(
  (model): GAT(42, 701, num_layers=8)
  (ffn): Sequential(
    (0): Linear(in_features=701, out_features=701, bias=True)
    (1): BatchNorm1d(701, eps=1e-05, momentum=0.1, affine=True, track_running_stats=True)
    (2): ReLU()
    (3): Linear(in_features=701, out_features=701, bias=True)
    (4): BatchNorm1d(701, eps=1e-05, momentum=0.1, affine=True, track_running_stats=True)
    (5): ReLU()
    (6): Linear(in_features=701, out_features=701, bias=True)
    (7): BatchNorm1d(701, eps=1e-05, momentum=0.1, affine=True, track_running_stats=True)
    (8): ReLU()
    (9): Linear(in_features=701, out_features=701, bias=True)
    (10): BatchNorm1d(701, eps=1e-05, momentum=0.1, affine=True, track_running_stats=True)
    (11): ReLU()
    (12): Linear(in_features=701, out_features=701, bias=True)
    (13): BatchNorm1d(701, eps=1e-05, momentum=0.1, affine=True, track_running_stats=True)
    (14): ReLU()
    (15): Linear(in_features=701, out_features=701, bias=True)
    (16): BatchNorm1d(701, eps=1e-05, momentum=0.1, affine=True, track_running_stats=True)
    (17): ReLU()
    (18): Linear(in_features=701, out_features=701, bias=True)
    (19): BatchNorm1d(701, eps=1e-05, momentum=0.1, affine=True, track_running_stats=True)
    (20): ReLU()
    (21): Linear(in_features=701, out_features=900, bias=True)
  )
)
Epoch 0
  0%|          | 0/6 [00:00<?, ?it/s] 17%|█▋        | 1/6 [00:04<00:22,  4.43s/it] 33%|███▎      | 2/6 [00:07<00:14,  3.54s/it] 50%|█████     | 3/6 [00:10<00:09,  3.14s/it] 67%|██████▋   | 4/6 [00:12<00:05,  2.94s/it] 83%|████████▎ | 5/6 [00:15<00:02,  2.82s/it]100%|██████████| 6/6 [00:17<00:00,  2.77s/it]100%|██████████| 6/6 [00:17<00:00,  2.99s/it]
…
wandb: Run data is saved locally in /home/jose/simg_ir/wandb/run-20250227_222955-l80xffz8
wandb: Run `wandb offline` to turn off syncing.
wandb: Syncing run sleek-sweep-2
wandb: ⭐️ View project at https://wandb.ai/gomes-group/simg-ir
wandb: 🧹 View sweep at https://wandb.ai/gomes-group/simg-ir/sweeps/dq44t1oc
wandb: 🚀 View run at https://wandb.ai/gomes-group/simg-ir/runs/l80xffz8
INFO:root:WandB initialized
Loss:  0.26201340556144714
Loss:  0.44691285490989685
Loss:  0.3438485264778137
Loss:  0.35537993907928467
Loss:  0.3270227909088135
Loss:  0.30423933267593384
Evaluating...
Model is on device: cuda:0
GNN(
  (model): GAT(42, 389, num_layers=5)
  (ffn): Sequential(
    (0): Linear(in_features=389, out_features=389, bias=True)
    (1): BatchNorm1d(389, eps=1e-05, momentum=0.1, affine=True, track_running_stats=True)
    (2): ReLU()
    (3): Linear(in_features=389, out_features=389, bias=True)
    (4): BatchNorm1d(389, eps=1e-05, momentum=0.1, affine=True, track_running_stats=True)
    (5): ReLU()
    (6): Linear(in_features=389, out_features=389, bias=True)
    (7): BatchNorm1d(389, eps=1e-05, momentum=0.1, affine=True, track_running_stats=True)
    (8): ReLU()
    (9): Linear(in_features=389, out_features=900, bias=True)
  )
)
Epoch 0
  0%|          | 0/6 [00:00<?, ?it/s] 17%|█▋        | 1/6 [00:00<00:01,  3.15it/s] 33%|███▎      | 2/6 [00:00<00:01,  3.28it/s] 50%|█████     | 3/6 [00:00<00:00,  3.43it/s] 67%|██████▋   | 4/6 [00:01<00:00,  3.47it/s] 83%|████████▎ | 5/6 [00:01<00:00,  3.08it/s]100%|██████████| 6/6 [00:02<00:00,  2.03it/s]100%|██████████| 6/6 [00:02<00:00,  2.52it/s]
…
wandb: Run data is saved locally in /home/jose/simg_ir/wandb/run-20250228_010719-zaj3a2db
wandb: Run `wandb offline` to turn off syncing.
wandb: Syncing run splendid-sweep-3
wandb: ⭐️ View project at https://wandb.ai/gomes-group/simg-ir
wandb: 🧹 View sweep at https://wandb.ai/gomes-group/simg-ir/sweeps/dq44t1oc
wandb: 🚀 View run at https://wandb.ai/gomes-group/simg-ir/runs/zaj3a2db
INFO:root:WandB initialized
Loss:  0.6978461146354675
Loss:  0.7420828342437744
Loss:  0.7077798843383789
Loss:  0.7336194515228271
Loss:  0.6470853686332703
Loss:  0.6991037130355835
Evaluating...
Model is on device: cuda:0
GNN(
  (model): GAT(42, 815, num_layers=6)
  (ffn): Sequential(
    (0): Linear(in_features=815, out_features=815, bias=True)
    (1): BatchNorm1d(815, eps=1e-05, momentum=0.1, affine=True, track_running_stats=True)
    (2): ReLU()
    (3): Linear(in_features=815, out_features=815, bias=True)
    (4): BatchNorm1d(815, eps=1e-05, momentum=0.1, affine=True, track_running_stats=True)
    (5): ReLU()
    (6): Linear(in_features=815, out_features=900, bias=True)
  )
)
Epoch 0
  0%|          | 0/6 [00:00<?, ?it/s] 17%|█▋        | 1/6 [00:02<00:13,  2.65s/it] 33%|███▎      | 2/6 [00:05<00:10,  2.68s/it] 50%|█████     | 3/6 [00:08<00:08,  2.71s/it] 67%|██████▋   | 4/6 [00:10<00:05,  2.72s/it] 83%|████████▎ | 5/6 [00:13<00:02,  2.64s/it]100%|██████████| 6/6 [00:15<00:00,  2.56s/it]100%|██████████| 6/6 [00:15<00:00,  2.62s/it]
…
wandb: Run data is saved locally in /home/jose/simg_ir/wandb/run-20250228_030251-ey2vs4ht
wandb: Run `wandb offline` to turn off syncing.
wandb: Syncing run resilient-sweep-4
wandb: ⭐️ View project at https://wandb.ai/gomes-group/simg-ir
wandb: 🧹 View sweep at https://wandb.ai/gomes-group/simg-ir/sweeps/dq44t1oc
wandb: 🚀 View run at https://wandb.ai/gomes-group/simg-ir/runs/ey2vs4ht
INFO:root:WandB initialized
Loss:  0.3007320761680603
Loss:  0.34544676542282104
Loss:  0.4012320041656494
Loss:  0.4479689598083496
Loss:  0.31515073776245117
Loss:  0.32780027389526367
Evaluating...
Model is on device: cuda:0
GNN(
  (model): GAT(42, 400, num_layers=4)
  (ffn): Sequential(
    (0): Linear(in_features=400, out_features=400, bias=True)
    (1): BatchNorm1d(400, eps=1e-05, momentum=0.1, affine=True, track_running_stats=True)
    (2): ReLU()
    (3): Linear(in_features=400, out_features=400, bias=True)
    (4): BatchNorm1d(400, eps=1e-05, momentum=0.1, affine=True, track_running_stats=True)
    (5): ReLU()
    (6): Linear(in_features=400, out_features=400, bias=True)
    (7): BatchNorm1d(400, eps=1e-05, momentum=0.1, affine=True, track_running_stats=True)
    (8): ReLU()
    (9): Linear(in_features=400, out_features=400, bias=True)
    (10): BatchNorm1d(400, eps=1e-05, momentum=0.1, affine=True, track_running_stats=True)
    (11): ReLU()
    (12): Linear(in_features=400, out_features=900, bias=True)
  )
)
Epoch 0
  0%|          | 0/6 [00:00<?, ?it/s] 17%|█▋        | 1/6 [00:00<00:01,  4.16it/s] 33%|███▎      | 2/6 [00:00<00:00,  4.50it/s] 50%|█████     | 3/6 [00:00<00:00,  4.65it/s] 67%|██████▋   | 4/6 [00:00<00:00,  4.73it/s] 83%|████████▎ | 5/6 [00:01<00:00,  4.57it/s]100%|██████████| 6/6 [00:01<00:00,  4.55it/s]100%|██████████| 6/6 [00:01<00:00,  4.55it/s]
…
wandb: Run data is saved locally in /home/jose/simg_ir/wandb/run-20250228_033128-9og2q5wl
wandb: Run `wandb offline` to turn off syncing.
wandb: Syncing run swept-sweep-5
wandb: ⭐️ View project at https://wandb.ai/gomes-group/simg-ir
wandb: 🧹 View sweep at https://wandb.ai/gomes-group/simg-ir/sweeps/dq44t1oc
wandb: 🚀 View run at https://wandb.ai/gomes-group/simg-ir/runs/9og2q5wl
INFO:root:WandB initialized
Loss:  0.6059888601303101
Loss:  0.574475884437561
Loss:  0.6025031208992004
Loss:  0.6007232666015625
Loss:  0.7001748085021973
Loss:  0.7772793173789978
Evaluating...
Model is on device: cuda:0
GNN(
  (model): GAT(42, 471, num_layers=5)
  (ffn): Sequential(
    (0): Linear(in_features=471, out_features=471, bias=True)
    (1): BatchNorm1d(471, eps=1e-05, momentum=0.1, affine=True, track_running_stats=True)
    (2): ReLU()
    (3): Linear(in_features=471, out_features=471, bias=True)
    (4): BatchNorm1d(471, eps=1e-05, momentum=0.1, affine=True, track_running_stats=True)
    (5): ReLU()
    (6): Linear(in_features=471, out_features=471, bias=True)
    (7): BatchNorm1d(471, eps=1e-05, momentum=0.1, affine=True, track_running_stats=True)
    (8): ReLU()
    (9): Linear(in_features=471, out_features=471, bias=True)
    (10): BatchNorm1d(471, eps=1e-05, momentum=0.1, affine=True, track_running_stats=True)
    (11): ReLU()
    (12): Linear(in_features=471, out_features=900, bias=True)
  )
)
Epoch 0
  0%|          | 0/6 [00:00<?, ?it/s] 17%|█▋        | 1/6 [00:01<00:08,  1.60s/it] 33%|███▎      | 2/6 [00:03<00:06,  1.68s/it] 50%|█████     | 3/6 [00:05<00:05,  1.71s/it] 67%|██████▋   | 4/6 [00:07<00:03,  1.99s/it] 83%|████████▎ | 5/6 [00:08<00:01,  1.67s/it]100%|██████████| 6/6 [00:09<00:00,  1.54s/it]100%|██████████| 6/6 [00:09<00:00,  1.65s/it]
…
